.dart_tool/chrome-device/Default/optimization_guide_prediction_model_downloads/e67ccff5-cb02-4cd7-9eb2-e6fe5a4c7e18/model.tflite (tflite, 498468 bytes, 160 tensors)

context_transformer_0/bottleneck_input/norm/add;StatefulPartitionedCall/context_transformer_0/bottleneck_input/norm/add;context_transformer_0/bottleneck_input/dense/einsum/Einsum;StatefulPartitionedCall/context_transformer_0/bottleneck_input/dense/einsum/Einsum;context_transformer_0/bottleneck_input/norm/mul;StatefulPartitionedCall/context_transformer_0/bottleneck_input/norm/mul;context_transformer_0/bottleneck_input/dense/add;StatefulPartitionedCall/context_transformer_0/bottleneck_input/dense/add;12614;12616;12618 f4 [32]
000000 c2 40 21 3e 66 65 59 3d d4 d5 91 3d d2 7c 4c 3e
       0.1574736 0.053075217 0.071208626 0.1996949
000010 40 08 b8 3d a2 56 b0 bd 8c 4f 05 3e 02 bd 53 bd
       0.089859486 -0.08610274 0.13018626 -0.051693924
000020 65 04 7f bd a9 b7 05 bd 30 05 01 be ec 80 93 bd
       -0.06226005 -0.032645855 -0.12599635 -0.07202324
000030 52 24 f2 bd e8 5c e4 bd 46 f8 43 bd 0a 24 03 be
       -0.11823334 -0.11150533 -0.047844194 -0.12806717
000040 8b a8 14 3e 46 e5 ec 3b cf f8 02 be 2f 3b 8f bd
       0.14517419 0.00722948 -0.12790225 -0.0699371
000050 1e 97 d6 3c 72 d0 44 bd 4e 0b 81 bd 0b 47 08 bd
       0.026195105 -0.04805035 -0.06300984 -0.033270877
000060 3f 74 97 3d aa 41 10 3d 7c 4e 76 3d f4 2c e5 3c
       0.07395219 0.035218872 0.060133442 0.027975537
000070 8b de 1a 3d 70 c0 ff 3c de da 01 bd c6 e3 03 3d
       0.03780989 0.031219691 -0.03170287 0.032199644

context_transformer_1/bottleneck_input/norm/add;StatefulPartitionedCall/context_transformer_1/bottleneck_input/norm/add;context_transformer_0/bottleneck_input/dense/einsum/Einsum;StatefulPartitionedCall/context_transformer_0/bottleneck_input/dense/einsum/Einsum;context_transformer_1/bottleneck_input/norm/mul;StatefulPartitionedCall/context_transformer_1/bottleneck_input/norm/mul;context_transformer_1/bottleneck_input/dense/add;StatefulPartitionedCall/context_transformer_1/bottleneck_input/dense/add;context_transformer_1/bottleneck_input/dense/einsum/Einsum;StatefulPartitionedCall/context_transformer_1/bottleneck_input/dense/einsum/Einsum;12706;12708;12710 f4 [32]
000000 ad 32 00 3e 7f 1a 9e 3c 02 b2 f2 bc f6 80 b0 bd
       0.12519331 0.019299744 -0.029625896 -0.08618347
000010 a9 57 80 3e f2 87 0d be 5c 35 bb 3c 36 67 9b bd
       0.2506688 -0.1382139 0.022852592 -0.07588045
000020 ea 2b 75 3d d6 7a 85 bc 84 46 9e bc 44 3d 8b 3c
       0.059856333 -0.016293924 -0.019320734 0.016996987
000030 26 b2 b5 bd ce 15 ac 3d 06 d0 a6 3d ba c1 8f bd
       -0.0887187 0.084025964 0.08145146 -0.07019372
000040 c0 6e 9a bd f4 12 cd 3d 38 75 05 3e 70 48 06 3e
       -0.07540655 0.10013381 0.13032997 0.1311357
000050 3c b6 6c 3e 52 d1 97 be 56 ca 35 bd bc dd b4 3c
       0.23116392 -0.29651886 -0.044382416 0.022078387
000060 2b 8c 2e 3e ba a6 40 be 00 0a e3 bd 5a 29 a3 3d
       0.17045657 -0.18813601 -0.11085892 0.079668716
000070 4c 5d 2d 3e 52 7c 84 3d 24 45 a0 39 ee f1 3b be
       0.16930121 0.06469025 0.00030569092 -0.18354008

mention_transformer_0/bottleneck_input/norm/add;StatefulPartitionedCall/mention_transformer_0/bottleneck_input/norm/add;sequential_1/dense_3/Tensordot/shape;StatefulPartitionedCall/sequential_1/dense_3/Tensordot/shape;mention_transformer_0/bottleneck_input/norm/mul;StatefulPartitionedCall/mention_transformer_0/bottleneck_input/norm/mul;mention_transformer_0/bottleneck_input/dense/add;StatefulPartitionedCall/mention_transformer_0/bottleneck_input/dense/add;mention_transformer_0/bottleneck_input/dense/einsum/Einsum;StatefulPartitionedCall/mention_transformer_0/bottleneck_input/dense/einsum/Einsum;12810;12812;12814 f4 [32]
000000 88 24 7c bc b0 10 46 be 0a 17 97 3d eb c2 a8 3c
       -0.015389569 -0.19342303 0.07377441 0.020600757
000010 d0 4c d3 bc 71 48 5d bd 35 9c 0a 3d 3f cb 6f bd
       -0.025793463 -0.054024164 0.033840377 -0.05854344
000020 e5 3d 46 be c0 40 2f 3e 7b b8 bb 3d fa 0d 3a be
       -0.19359548 0.17114544 0.09166046 -0.18169394
000030 f2 53 c7 bd 86 b8 ec bd 0d b5 a0 bb 88 9f 88 3d
       -0.09732808 -0.115586326 -0.0049043954 0.06671053
000040 91 ec ff bd 96 78 df 3d 6b a7 0d be e0 44 9f bd
       -0.12496293 0.10911672 -0.13833396 -0.07776809
000050 8c 60 96 bd 38 62 7c bd ec 73 8c 3d fa 87 f4 3c
       -0.073426336 -0.061617106 0.06858048 0.029849995
000060 89 7d f9 3d e2 0f 13 be ac b8 ac bd 3c e5 ac 3d
       0.12182147 -0.14361528 -0.08433661 0.084421605
000070 c2 ec 0c 3d f4 59 e6 bd 22 25 33 3e 1d 3f ba bd
       0.034405477 -0.11247626 0.17494634 -0.09094069

mention_transformer_1/bottleneck_input/norm/add;StatefulPartitionedCall/mention_transformer_1/bottleneck_input/norm/add;sequential_1/dense_3/Tensordot/shape;StatefulPartitionedCall/sequential_1/dense_3/Tensordot/shape;mention_transformer_1/bottleneck_input/norm/mul;StatefulPartitionedCall/mention_transformer_1/bottleneck_input/norm/mul;mention_transformer_1/bottleneck_input/dense/add;StatefulPartitionedCall/mention_transformer_1/bottleneck_input/dense/add;mention_transformer_1/bottleneck_input/dense/einsum/Einsum;StatefulPartitionedCall/mention_transformer_1/bottleneck_input/dense/einsum/Einsum;12902;12904;12906 f4 [32]
000000 78 ff d5 3e 5e 47 83 be 06 9e ec bd dc 42 08 3d
       0.4179647 -0.25640386 -0.11553578 0.033266887
000010 b4 f1 4a be a1 4f 33 be 2e c7 df be aa b2 56 3d
       -0.19818765 -0.17510845 -0.4370665 0.05241648
000020 f5 72 26 be c0 1c fb 3d 41 3e 78 bd 5e 78 be 3e
       -0.1625479 0.12261343 -0.060606245 0.37201208
000030 7e 7b a2 3d 9a 6f 0e 3e 74 ec 16 be a8 70 04 be
       0.079337105 0.1390976 -0.14738637 -0.129336
000040 d4 51 8b 3d 54 a8 44 3e d8 0c 95 3e 62 c8 30 3e
       0.06802717 0.19204837 0.29111362 0.1726394
000050 95 0f ec 3d ae 57 77 bd c0 0f 03 be 1c 55 84 3d
       0.115264095 -0.060386352 -0.12798977 0.06461546
000060 c7 a5 84 3c ee 32 0b 3e fc 0c 4d bd 06 ce 9c bd
       0.01619233 0.13593647 -0.05006121 -0.07656483
000070 ab d3 02 be 18 52 e3 bc 0b d1 ba bd c0 a5 52 be
       -0.12776057 -0.027749106 -0.09121903 -0.20571041

context_transformer_0/attention/value/add;StatefulPartitionedCall/context_transformer_0/attention/value/add;context_transformer_0/attention/value/einsum/Einsum;StatefulPartitionedCall/context_transformer_0/attention/value/einsum/Einsum;12638 f4 [32]
000000 4b a8 c7 ba 22 02 33 3d d9 fd 0a bd a8 68 85 bd
       -0.001523265 0.043703206 -0.033933494 -0.06514102
000010 ae 40 a7 bd f0 35 c6 bc 46 dc 82 bb 4f f4 66 bd
       -0.081666335 -0.024195641 -0.003993544 -0.056385335
000020 61 cf 5e bb ea c0 1e bc a4 19 30 3d a4 7a 9d bc
       -0.003399812 -0.009689549 0.042993203 -0.019223519
000030 dc 58 4c ba 1f c9 38 bc 28 e2 8c bc fb 17 36 bc
       -0.00077952235 -0.01127842 -0.017197683 -0.011114116
000040 d3 1c a6 bc 2c 71 b2 bc cf d7 7c 3d b6 be 9c bd
       -0.020277416 -0.02178248 0.06172925 -0.07653563
000050 87 e3 81 3d 10 72 57 3d d6 91 ce bd ad 3e 6c bd
       0.063422255 0.052599013 -0.1008641 -0.05767696
000060 93 78 6c 3c ea f9 6b 3d 47 09 9e 3d 97 79 45 3d
       0.014433044 0.057611383 0.07716613 0.04821166
000070 ba f3 f3 3c 80 a5 8a bd 19 72 90 3d 4b 89 39 bd
       0.029779304 -0.06769848 0.070530124 -0.04529695

context_transformer_0/bottleneck_input/norm/mul;StatefulPartitionedCall/context_transformer_0/bottleneck_input/norm/mul;context_transformer_0/bottleneck_input/dense/einsum/Einsum;StatefulPartitionedCall/context_transformer_0/bottleneck_input/dense/einsum/Einsum;context_transformer_0/bottleneck_input/dense/add;StatefulPartitionedCall/context_transformer_0/bottleneck_input/dense/add;12614;12616 f4 [32, 32]
000000 0c ce e2 bd 67 68 3a be d9 87 a6 bc 55 7c 0c be
       -0.110744566 -0.18203889 -0.02032845 -0.13719304
000010 2e 1f 80 3d 9a e2 e2 3c 05 b0 ee bd 67 d8 a8 3d
       0.06255947 0.027695943 -0.11654667 0.082444005
000020 a0 10 01 bd 32 81 94 3e c5 d6 29 be 60 9e ba 3e
       -0.031509995 0.29004818 -0.16585834 0.36448956
000030 03 c0 90 3d b6 03 8f 3c 43 90 88 3e d5 3c 89 be
       0.07067873 0.017457824 0.26672563 -0.26804224
000040 05 6e 69 3c a7 6e f1 3d 76 01 b9 be 17 be 46 3e
       0.014247422 0.117886834 -0.36133927 0.19408451
000050 bd dc 2a bc 52 90 a3 3d ee 4f b0 3e 6a 51 af be
       -0.010428605 0.07986511 0.34435982 -0.34241802
000060 14 6b 30 3e 53 cd 87 be c5 e7 8c 3d 6a ab 37 be
       0.17228347 -0.26523837 0.06880144 -0.17936483
000070 3a 95 70 3d 4c 89 60 3e 8f 3d d3 be 8d 2e 80 bd
       0.058736064 0.21927375 -0.41257903 -0.06258879
000080 dc 62 1e 3d 92 c5 11 3e 69 c4 0d bf e5 62 3f bd
       0.0386685 0.14235523 -0.55377823 -0.046725173
000090 f7 61 61 be 69 9c 97 be 4f b6 ec 3d 24 8a a5 be
       -0.22010027 -0.2961152 0.1155821 -0.32331955
0000a0 b1 36 c8 be ee 3b 9d be 64 40 05 be 71 50 04 3d
       -0.39104226 -0.30709785 -0.13012844 0.032303277
0000b0 6f 22 09 3e 3e 71 1c 3f 27 a0 94 be 5b 72 30 3e
       0.13392042 0.61110294 -0.29028437 0.17231123
0000c0 98 2a 46 be 0f 4a 15 3e 9e 2d f1 bd d4 76 95 3e
       -0.19352186 0.14579032 -0.11776279 0.2919222
0000d0 7e bf ce 3c 5e 24 95 be 8c 5c 9b be 22 c1 22 3f
       0.025237795 -0.29129308 -0.30344045 0.6357595
0000e0 41 94 53 3d c3 b4 19 bf 1f c3 c9 bd 9e 4b aa 3c
       0.051655058 -0.60041445 -0.098516695 0.02078801
0000f0 3c 74 7b 3d 34 9c 5c 3c 97 4e b1 be 05 3e 10 be
       0.061390147 0.013464976 -0.34630272 -0.14086159
000100 72 2e 94 bd 1e a3 31 3e 2f ee 89 3d 92 cc 68 3d
       -0.07235421 0.1734738 0.06734883 0.05683572
000110 95 0a d2 3e 70 16 3a 3e 9c ab 12 be 60 5f 33 bd
       0.41023698 0.18172622 -0.14323276 -0.04379213
000120 d4 bc c1 3d 71 17 41 3f 5e dc af bd ed 69 e0 3d
       0.09459844 0.75426394 -0.085869536 0.10957704
000130 0e 04 67 bc 99 84 2c be 09 b0 96 3e c7 76 33 bd
       -0.014100088 -0.16847457 0.2943118 -0.043814447
000140 fa 40 0e be 77 7b 2b 3c 05 43 57 3e 5a 07 83 be
       -0.13891974 0.010466448 0.2102166 -0.25591546
000150 1c f8 3e 3e fd a3 d8 3d 81 eb aa 3d 9e a9 a8 3c
       0.18649334 0.10578153 0.083457 0.020588692
000160 0a d9 1c 3e 28 4e 3e be b4 2e 8b 3e d7 79 19 3e
       0.15317169 -0.18584502 0.2718407 0.14987884
000170 88 c3 43 3e f7 9b 63 3e 6f 9f 19 be 83 4a 3f be
       0.19117558 0.22227465 -0.15002225 -0.18680768
000180 00 22 57 3e 27 ff b6 be d1 91 07 be 45 72 35 bd
       0.21009064 -0.3574154 -0.13239218 -0.04429843
000190 a8 d9 bf be b7 98 07 3e 15 d4 65 3d ca 0f 96 3c
       -0.37470746 0.1324185 0.05611046 0.018318076
0001a0 ea 80 58 be d0 9f 68 3e 4c eb 2a be e3 9f 2a 3e
       -0.21142927 0.22717214 -0.16691321 0.16662554
0001b0 f2 d4 96 bd ab df 6e 3b d9 a9 a7 3d 8e 68 81 3d
       -0.07364835 0.0036449234 0.08186693 0.0631877
0001c0 d6 09 be bd b7 56 ac 3c 3c a5 91 bd 01 18 be 3b
       -0.0927922 0.021037443 -0.07111594 0.0058012013
0001d0 7f d4 99 be 68 6f 09 3e 8f a3 27 3e 6a e4 f1 be
       -0.30044934 0.13421404 0.16370986 -0.4724458
0001e0 e0 e0 85 be 49 59 b1 bd 0e d5 2c be 45 de 4d be
       -0.26148129 -0.08659608 -0.16878149 -0.2010432
0001f0 52 62 85 be 28 4a ac bd 0b ae 13 bf b6 de a8 3d
       -0.26051575 -0.08412582 -0.57687443 0.08245604
000200 67 b7 ec bd 7a 01 b4 3e 60 ce a3 3d e9 2c 45 be
       -0.11558419 0.35157377 0.07998347 -0.19255413
000210 a6 c8 90 bd e1 5d 1d be 3c c0 7b 3d d7 f6 60 be
       -0.07069521 -0.15367843 0.061462626 -0.21969162
000220 96 fa d2 bd 86 50 d1 3d a5 36 2b bd a1 c0 37 be
       -0.10301702 0.10220437 -0.04180016 -0.17944576
000230 9d 02 4f bd ef 61 65 be b4 b4 0a 3e b8 08 15 be
       -0.0505396 -0.2240064 0.13545495 -0.14554107
000240 89 ff 82 3d ba ce d2 bc 1d 9a 9b 3d da ea 87 be
       0.06396396 -0.02573334 0.07597754 -0.26546365
000250 93 18 45 3d 43 20 c7 bd cb d6 04 3d 41 8c 5f 3e
       0.04811914 -0.0972295 0.032431405 0.21830846
000260 ef 3c 90 be b9 dd 68 3e 0b e4 77 bd f5 b2 c5 3b
       -0.2817149 0.2274083 -0.060520213 0.006033296
000270 ba 7c 23 3e 0e c5 c4 3e 19 90 56 3e 8d aa b8 be
       0.15965548 0.3843159 0.20953406 -0.3606762
000280 05 7d 66 3e 12 8a 8d be a6 c5 4f 3d 3e 10 8c 3e
       0.22508629 -0.27644402 0.0507256 0.27356142
000290 05 a0 ad be d0 f2 87 3e a4 02 4c be 4e 6a 8a be
       -0.33911148 0.2655244 -0.19922882 -0.2703423
0002a0 4b c3 4d be 01 9b 90 be e4 fe 8c 3e 90 b2 0a 3f
       -0.2009403 -0.2824326 0.27538216 0.54178715
0002b0 44 b7 d8 3d e0 9c 97 3e 80 f6 d6 3d ff 49 a9 be
       0.1058183 0.29611874 0.10496235 -0.33064267
0002c0 2e ce 7b bc 47 2e 59 3e b4 e1 36 be 28 1c 7f 3e
       -0.015368981 0.2120906 -0.17859536 0.24913085
0002d0 f0 d7 15 be a2 72 a7 bd 1e 61 ca 3d fc 81 25 be
       -0.14633155 -0.08176161 0.09881805 -0.16162866
0002e0 a2 d6 3c 3f d4 19 09 bf 03 d0 8f 3e b7 75 9c be
       0.73765004 -0.53555036 0.28088388 -0.3055856
0002f0 60 3f 31 be 91 22 87 3d f7 42 de 3e 65 8d 96 3c
       -0.17309332 0.0659839 0.43410465 0.018377969
000300 3d e3 21 3e 84 d9 de bd 95 8d 77 ba d3 e8 4e be
       0.15809341 -0.108813316 -0.00094433996 -0.20206003
000310 52 f1 13 3e 00 a9 9f 3e bf 81 d1 be f0 67 c3 3d
       0.14447525 0.31183624 -0.409193 0.09541309
000320 b7 81 36 3e c1 44 61 3e fb c5 f1 bc 83 a7 af 3d
       0.1782292 0.21998884 -0.02951335 0.08576872
000330 a5 40 19 be f6 5e 5f 3b d3 1f 92 be e8 f7 cd 3d
       -0.14966066 0.00340837 -0.28539905 0.1005705
000340 2d 36 09 bc e8 e1 8c 3e 9a 39 9d 3e 53 09 3b be
       -0.008374733 0.27516103 0.3070801 -0.18265276
000350 0f d1 05 3e 97 80 ab 3d da 9c 2f 3d bc 14 6f be
       0.13068031 0.08374136 0.042874195 -0.23347753
000360 28 1b a5 be 69 fa 54 3e 87 68 93 be ad 1c 9b bd
       -0.3224728 0.20798649 -0.28790686 -0.07573829
000370 de 0b 0c 3e 89 24 01 3e 32 e3 88 be 97 7b 02 3d
       0.13676402 0.12611593 -0.26735836 0.031856146
000380 53 0c 8c bd db b2 65 3c d3 00 b5 bc d9 ec 84 be
       -0.06838288 0.014019693 -0.02209512 -0.2596195
000390 32 03 1f be 1f e0 52 bb a0 15 ae bd b5 4d 7c be
       -0.15528563 -0.0032177044 -0.085002184 -0.24639018
0003a0 75 66 e1 bc 1e 0c 54 3d 85 e0 e5 3d 3e 27 02 be
       -0.027514676 0.05176937 0.11224464 -0.12710282
0003b0 fe 71 3d be ad 44 da bc 4b ed 3e 3e b8 5e f6 bd
       -0.18500516 -0.026644075 0.18645208 -0.12029785
0003c0 b0 88 0a 3e 11 81 f8 3d 7a 87 11 3d ab 8d b0 3d
       0.13528705 0.121339925 0.03552959 0.08620771
0003d0 ba 5f ee 3b 50 0c 06 3e 75 fc 3f 3e 9a da d1 3d
       0.007274595 0.13090634 0.18748648 0.10246773
0003e0 60 c4 20 be c2 4d 85 3d 60 98 e4 bd fa d8 58 3c
       -0.15699911 0.06508972 -0.11161876 0.013235325
0003f0 32 7d 39 be fc 34 95 3c fc 98 86 be ea e3 21 be
       -0.18114164 0.018213741 -0.26288593 -0.15809599

context_transformer_1/attention/value/add;StatefulPartitionedCall/context_transformer_1/attention/value/add;context_transformer_0/attention/value/einsum/Einsum;StatefulPartitionedCall/context_transformer_0/attention/value/einsum/Einsum;context_transformer_1/attention/value/einsum/Einsum;StatefulPartitionedCall/context_transformer_1/attention/value/einsum/Einsum;12730 f4 [32]
000000 7e e9 71 bd c4 d3 c2 bc ae d8 b9 bb c4 89 54 3c
       -0.059060566 -0.023782618 -0.005671582 0.012972299
000010 7d 96 8c bd 45 54 87 3d 54 88 29 bd ca 10 05 3e
       -0.06864641 0.0660787 -0.04138978 0.12994686
000020 e6 a4 0e bb c1 1b 59 3e 12 e9 c0 bd 6a 73 05 bc
       -0.0021765768 0.21201994 -0.09419455 -0.008145193
000030 a9 71 10 be 17 6b 5d 3d 33 ac 79 3d e4 94 68 bd
       -0.14105858 0.054057207 0.060955238 -0.05678262
000040 62 00 0f 3d 5c 55 0f be 37 cd 94 bd 5b 7a 06 3e
       0.034912474 -0.13997406 -0.07265704 0.13132612
000050 1e 9b 0e 3e 8e a8 bd 3d 0e 66 42 bd 0e f3 6a 3d
       0.1392636 0.09260665 -0.04746061 0.0573607
000060 82 91 f9 3d 95 13 32 3e 1c 34 81 bc b8 e3 ec 3c
       0.121859565 0.17390282 -0.015771918 0.028917179
000070 df 30 ff bc 36 64 e6 3b e8 0b 28 be 0c c4 8b bd
       -0.031151233 0.007030989 -0.16410792 -0.06824502

context_transformer_1/bottleneck_input/norm/mul;StatefulPartitionedCall/context_transformer_1/bottleneck_input/norm/mul;context_transformer_0/bottleneck_input/dense/einsum/Einsum;StatefulPartitionedCall/context_transformer_0/bottleneck_input/dense/einsum/Einsum;context_transformer_1/bottleneck_input/dense/add;StatefulPartitionedCall/context_transformer_1/bottleneck_input/dense/add;context_transformer_1/bottleneck_input/dense/einsum/Einsum;StatefulPartitionedCall/context_transformer_1/bottleneck_input/dense/einsum/Einsum;12706;12708 f4 [32, 32]
000000 7a 98 5a 3e 83 8d 63 be 48 cf 67 be 8b 7a 7e 3d
       0.21347228 -0.22221951 -0.22637665 0.062128585
000010 fd 4f 2a be 4f 37 e1 3e 9f 26 a7 3e bf 34 2b be
       -0.16632076 0.4398751 0.32646653 -0.1671934
000020 61 af 3f bb db 07 91 3d 3a 80 77 3e ea 9d 0b bf
       -0.002924882 0.070815764 0.24170008 -0.5453783
000030 3b 29 88 3c 00 35 cc be d9 e9 d3 3e 2c 83 c4 be
       0.016621223 -0.39884186 0.4138935 -0.38381326
000040 49 32 1a be ef fe 40 3d 45 43 ff 3d 9d d6 24 be
       -0.15058245 0.047118124 0.124640025 -0.16097493
000050 91 23 f4 bd dd b3 04 3e ee 2a f3 bd e5 5a 04 3f
       -0.11920846 0.12959237 -0.118734226 0.51701194
000060 4d b9 dc be 1c ae 30 3e e1 3d f8 be e4 5a b6 be
       -0.43110123 0.17253917 -0.4848471 -0.3561622
000070 0b aa d2 3e bf 18 68 3d 0b ec ad be 13 4b 52 bd
       0.41145357 0.056664225 -0.3396915 -0.051341128
000080 fc 94 4b be 8f ce a7 3d 97 47 3c bd f3 6f 9d 3c
       -0.19881052 0.08193695 -0.04596671 0.01921842
000090 20 2f 30 3d cf 43 31 be 8f 86 fe 3e 1b 4c b3 be
       0.043013692 -0.17311023 0.49712035 -0.35019
0000a0 63 ae 0d 3f 86 2a 1b 3e a3 11 f6 bd c1 12 f6 3e
       0.5534422 0.1515294 -0.12015083 0.48061183
0000b0 70 84 87 3e f8 7a 06 bf 33 2f 1a be fa c5 f0 be
       0.2646823 -0.52531385 -0.15057068 -0.47026044
0000c0 7b 46 db bd 7f c3 fa bd 59 d7 21 bd c8 3a e2 bd
       -0.107068025 -0.12244319 -0.039512012 -0.11046368
0000d0 eb c6 d0 bd 1a b7 50 3e f5 31 27 bd a7 46 3e 3e
       -0.101941906 0.20382348 -0.040819127 0.18581639
0000e0 97 2c 81 3e 28 19 be 3c 35 69 1b 3e b0 84 a3 bc
       0.25229332 0.023205355 0.15176852 -0.019960731
0000f0 3b 1d 24 3e fd 1d 7a 3e 26 c0 ab 3d cf 6a fb bd
       0.16026776 0.24425502 0.08386259 -0.122762315
000100 ec e8 87 bd 2d 6a fa 3d 57 b4 8e bd f8 f0 d5 3e
       -0.06636223 0.12227283 -0.06967991 0.41785407
000110 64 ab f8 bd 41 49 d5 bd 83 d0 08 be 08 05 ef bd
       -0.12142065 -0.10414363 -0.13360791 -0.116708815
000120 d3 c2 3f 3e ac 58 d8 3d f6 4c ff bc aa 5c 9e 3c
       0.18726663 0.10563788 -0.031164628 0.019331295
000130 4a e6 44 3d 56 b8 b6 bc 13 32 94 3e 17 50 60 3e
       0.048071183 -0.022304695 0.28944454 0.21905552
000140 27 0b c6 bd 2b a9 5d 3e 91 72 52 3d 57 b1 70 be
       -0.09670096 0.21646564 0.05137879 -0.2350515
000150 77 9d 72 3e 3a e2 d6 3e 24 e0 0a 3f a4 ec f3 be
       0.2369288 0.41969472 0.5424826 -0.4764148
000160 c0 4f bc 3c 01 60 56 be 2e b0 88 3c 1a 2e 79 3e
       0.022987247 -0.2093506 0.016685572 0.24333993
000170 f9 4b f2 3c 3b 35 06 3e ce 18 b6 3e 3b 23 89 3d
       0.029577242 0.13106243 0.355658 0.06696173
000180 13 23 09 3e ac 44 03 3f ea c2 bf be 56 c8 3a bd
       0.13392286 0.5127666 -0.37453395 -0.04560121
000190 e9 ef 4b 3e e9 c9 29 bf 6c 4d b8 bd ab 52 cb 3e
       0.19915737 -0.66323715 -0.08999142 0.39711508
0001a0 11 7c 87 3e 75 69 c3 be 82 00 17 be 4f e2 18 be
       0.26461843 -0.38166395 -0.14746287 -0.1493008
0001b0 a2 fa 00 bf e3 1f 14 be 62 97 de 3e f3 c1 d9 3d
       -0.50382435 -0.14465289 0.4347487 0.10632696
0001c0 c1 29 0b 3e 4d 36 8e be e6 98 77 3d 75 52 ae 3e
       0.13590147 -0.27775803 0.06044855 0.34047285
0001d0 a9 72 b1 3d 3b f5 f1 bd 3f 0e 6e be b5 ce 28 3d
       0.08664448 -0.11814352 -0.23247622 0.041212756
0001e0 2b ab 49 3e 23 aa 3d 3e f0 78 e4 3e 31 28 29 3e
       0.19694202 0.18521933 0.44623518 0.16519238
0001f0 0c 2f 34 bf 66 eb fb be e1 fb 01 3f 01 3c a6 3e
       -0.7038429 -0.49203032 0.5077496 0.32467654
000200 36 7f 37 3f 1d 44 97 3c 90 f6 36 3d 65 2b de 3e
       0.71678483 0.018465096 0.044668734 0.43392482
000210 ef 52 bc bd 8a fd 78 be 92 b8 bd be 18 18 72 3e
       -0.09195506 -0.24315467 -0.37054878 0.23642004
000220 b4 4b 37 3e ca 88 65 3e 7d 29 7a 3d 7c e3 42 3f
       0.17899972 0.22415462 0.061074723 0.76128364
000230 9c 1d c3 3e 6c 25 3a be a6 16 9e 3e 21 d7 87 bd
       0.38108528 -0.18178338 0.30876654 -0.066328295
000240 c7 89 f4 bd c8 11 3e be 9f 87 0c be cb 26 88 bd
       -0.119403414 -0.1856147 -0.1372361 -0.06648024
000250 2a 52 78 be aa 03 87 be 4e 9d 17 3e 13 04 2c bf
       -0.24250093 -0.26369983 0.148061 -0.67193717
000260 16 97 8c 3d c0 1d 5b be a4 be af 3e c5 4a c8 be
       0.06864755 -0.21398067 0.34325135 -0.39119545
000270 cc 42 1a be 5e 05 c7 be 74 15 35 3e 27 ee 8e 3d
       -0.15064543 -0.38871282 0.17683965 0.06979018
000280 84 f2 1b bc de 94 35 be 78 3d 0e bd b2 28 40 bd
       -0.009518269 -0.1773257 -0.03472659 -0.04691381
000290 79 70 1a 3f b3 7c e4 3d 50 65 8e 3d ff 0b 85 bd
       0.6032787 0.11156597 0.069529176 -0.06496429
0002a0 96 29 b2 3e ff 20 a1 3e 9b e1 4b be ea 20 82 be
       0.34797353 0.31470487 -0.1991028 -0.25415736
0002b0 6d d7 9d 3d 83 a7 c8 be b8 d8 63 be d5 05 2b bf
       0.07707105 -0.391903 -0.2225064 -0.66805774
0002c0 92 94 20 bd 63 7a d4 3e 65 27 60 3e 0f 17 a3 be
       -0.039204188 0.41499624 0.21890028 -0.3185353
0002d0 18 25 9d 3d 6f 8d 0d 3d f4 0a 82 be 9b 17 43 bd
       0.07673091 0.03455871 -0.25398982 -0.047629934
0002e0 f0 c1 c7 3c ce 8d 30 bc cf 58 30 be 40 a2 7d 3d
       0.024384469 -0.010775996 -0.17221378 0.06192231
0002f0 f3 21 9c 3e ea e7 68 bd b3 15 51 be ac 98 89 3e
       0.3049465 -0.056861795 -0.20418434 0.26874292
000300 b7 95 f9 bd 38 3a 10 bf d6 e4 4b 3e b2 05 b6 3d
       -0.12186759 -0.56338835 0.19911513 0.08887805
000310 e9 2c 9b 3d a2 a6 b5 3e 05 1d 2b 3e 64 e6 bb 3d
       0.07576925 0.35478693 0.16710289 0.09174803
000320 e8 fc 3f be a9 13 2a 3e 58 a2 bb 3d 6b af c0 3c
       -0.1874882 0.16609062 0.09161824 0.023521146
000330 d9 9a b9 be b4 88 08 bf cf 94 f0 bd 95 99 19 3e
       -0.36250952 -0.5333359 -0.11747133 0.14999993
000340 e7 05 31 bd 95 48 f7 3d 29 91 65 be 9b db 16 3d
       -0.04321852 0.12074391 -0.22418655 0.036830526
000350 83 89 86 3d f4 77 b5 3d 97 31 a5 3d 16 98 34 3c
       0.06569197 0.0886077 0.08066099 0.011022588
000360 62 dc 8f 3e 4c 54 85 be f2 50 86 bd 1e fa 09 3f
       0.28097826 -0.26040876 -0.06558408 0.53897274
000370 00 5f c5 3e a7 a8 57 3e 56 58 a3 be ad 06 a9 3e
       0.38549042 0.2106043 -0.31903332 0.33012906
000380 e2 17 08 3e a9 fc 9c 3d 48 07 4d be 31 ad 88 3e
       0.1329036 0.076653786 -0.20022309 0.26694635
000390 f0 a7 5e 3d 2b f9 b3 bd 66 83 04 3f aa 33 47 3d
       0.054359376 -0.087877594 0.51763 0.048633255
0003a0 9a f6 e9 bc a7 bc 53 3e 50 5c 34 bd f2 c4 13 bf
       -0.028559972 0.20677434 -0.04403335 -0.5772239
0003b0 10 54 68 be 86 c0 34 be ac 5d 30 be 2e 09 3f be
       -0.22688317 -0.17651567 -0.17223233 -0.18655846
0003c0 0f a7 ba 3e e7 99 f7 bd ff 42 2c be a0 dc e9 3b
       0.3645558 -0.120899014 -0.16822432 0.0071368963
0003d0 92 8f 78 bd 8c ad e5 bd c9 b6 f0 bd 69 74 fe bc
       -0.060683794 -0.11214742 -0.117536135 -0.031061368
0003e0 9b d8 4e 3e 36 a7 4c 3f 6b 15 2f be c9 8c 7b be
       0.20199816 0.79942644 -0.17098014 -0.24565424
0003f0 10 4c d9 3d 9f d3 9b bd 03 46 a8 bd 05 12 36 be
       0.10610211 -0.07608723 -0.08216479 -0.17780311

mention_transformer_0/attention/value/add;StatefulPartitionedCall/mention_transformer_0/attention/value/add;mention_transformer_0/attention/value/einsum/Einsum;StatefulPartitionedCall/mention_transformer_0/attention/value/einsum/Einsum;12834 f4 [32]
000000 84 72 f8 3c 6e 8e 04 3c 97 f4 93 3d cc a8 c5 ba
       0.030328043 0.0080905985 0.07224386 -0.0015080213
000010 99 25 33 bc ec 58 5d bc 85 27 a0 3d 5d 9d 15 be
       -0.010934257 -0.01350997 0.07820038 -0.1461081
000020 14 79 0c 3e 43 07 92 3e e9 5f 53 bd ba 3e 80 bd
       0.13718063 0.28521165 -0.05160514 -0.06261964
000030 0e 36 98 be a0 3a 4d 3e 0c e2 27 3c 9e 00 52 be
       -0.2972874 0.20041895 0.010246765 -0.20508048
000040 da cf d0 bd 91 20 15 3b e8 7a 83 3e 23 f2 ef 3d
       -0.101958945 0.0022755007 0.25679708 0.11716106
000050 95 d3 88 bd 77 3c aa be 6c a1 75 3e e9 5a 90 3d
       -0.06680981 -0.33249256 0.23987359 0.0704859
000060 d8 77 30 bc 12 1d 0d be 97 68 2b be 26 d0 bf 3d
       -0.0107707605 -0.1378062 -0.16739117 0.09365873
000070 40 5a 88 3d 02 07 f2 3d 2f c6 62 bd 85 54 c2 3c
       0.06657839 0.11817743 -0.055364784 0.023721943

mention_transformer_0/bottleneck_input/norm/mul;StatefulPartitionedCall/mention_transformer_0/bottleneck_input/norm/mul;sequential_1/dense_3/Tensordot/shape;StatefulPartitionedCall/sequential_1/dense_3/Tensordot/shape;mention_transformer_0/bottleneck_input/dense/add;StatefulPartitionedCall/mention_transformer_0/bottleneck_input/dense/add;mention_transformer_0/bottleneck_input/dense/einsum/Einsum;StatefulPartitionedCall/mention_transformer_0/bottleneck_input/dense/einsum/Einsum;12810;12812 f4 [32, 32]
000000 1d 9b 32 be 47 fd de 3d 74 cc 36 3e b7 70 dd bd
       -0.17441984 0.108881526 0.1785143 -0.10812514
000010 fa 7b 60 be ca 89 ca 3d 78 ce 78 be 64 c8 1b bd
       -0.21922293 0.098895624 -0.24297512 -0.038032904
000020 ca fb bd 3d 54 3b e5 3c af 55 80 bb fc f8 6a be
       0.092765406 0.027982391 -0.0039164643 -0.22946543
000030 d4 cc 24 3e c7 7f a1 3c 6d 7c f0 3d 91 fc 36 3e
       0.1609376 0.01971425 0.11742482 0.17869784
000040 c9 e8 06 bd 85 4c e9 3c 4c 26 93 bc ba cc 8d 3c
       -0.032936845 0.02847887 -0.017962597 0.017309535
000050 ad ec 50 3e c4 e9 80 3e 12 d7 ed bd 09 52 ce 3d
       0.20402785 0.2517835 -0.11613287 0.10074241
000060 04 bd 28 bd ea 0d 0e bc cf 9f 09 bd 42 eb b0 bd
       -0.041195884 -0.00867031 -0.03359967 -0.08638622
000070 4f 18 6f 3d 82 5c e4 bd 17 88 d9 3c 22 b5 61 be
       0.05837279 -0.11150457 0.02655415 -0.22041753
000080 03 d4 1a 3e 0e 0e 59 be 1e e4 02 3f 7e a7 80 bd
       0.15119939 -0.21196768 0.5112933 -0.062819466
000090 1c 5c b2 bd 5e cc 77 bd 18 34 97 be f1 b5 a7 be
       -0.08708975 -0.060497634 -0.29531932 -0.32755998
0000a0 4a 3f 0c 3e 2d b0 ae be c4 77 80 be 25 65 64 3d
       0.13696018 -0.34118786 -0.25091374 0.05576052
0000b0 9e 85 a8 bc 26 e2 f4 3d 60 1f 8c be 7a 0e f3 be
       -0.020571526 0.11957197 -0.27367687 -0.47471982
0000c0 05 8c 03 be 53 c5 8c be 79 a5 8c be 48 39 c4 bc
       -0.12846382 -0.27494296 -0.27469996 -0.023953095
0000d0 5f 8f 3f 3d 84 91 fb bd 99 c6 a9 3e db 26 10 3e
       0.04676759 -0.12283614 0.3315933 0.14077322
0000e0 ee c0 63 be 50 7f 91 bd ed cc b3 bd 61 fb 23 3f
       -0.22241566 -0.07104361 -0.08779321 0.6405545
0000f0 25 32 89 3e 03 dc 99 be 54 c9 e0 3c be 97 a6 3e
       0.2679607 -0.30050668 0.02743975 0.32537645
000100 57 28 58 3e 2d 35 88 3d 65 8b b5 bd d4 11 ba 3d
       0.21109138 0.066507675 -0.08864478 0.09085432
000110 f3 2c 3b be c7 74 fe bd 38 37 45 3e 8c bc 7e 3e
       -0.18278866 -0.12424617 0.19259346 0.24876612
000120 4f 25 da 3d c2 72 44 bd ea f7 0f 3e 98 21 8c 3d
       0.10651647 -0.047961004 0.14059415 0.06842345
000130 49 6f 3c 3e f0 6e 9c bd b5 bd 90 3d be 9d 3c 3e
       0.18401827 -0.07638347 0.07067434 0.18419549
000140 a0 9b 1b 3e ce 2b 68 bd e2 60 5f be 9b 44 8d bd
       0.15196085 -0.0566824 -0.21814302 -0.06897851
000150 ae c6 49 3e 33 f2 41 3e d4 23 f1 3d 8a 8c 13 3e
       0.19704697 0.18940048 0.11774412 0.1440908
000160 d5 6a b3 3c 01 ff 9d 3e 68 14 16 be 05 14 28 3e
       0.021901527 0.30858615 -0.14656222 0.16413887
000170 75 01 3a be 3b b2 13 bd a4 ef 7d 3e fd 05 85 be
       -0.18164618 -0.036058646 0.24798447 -0.2598113
000180 00 01 60 bd d1 56 de 3d 60 94 d5 ba f1 ca f1 3e
       -0.054688454 0.10856403 -0.001629483 0.47225145
000190 9b 2e 2e 3e c4 f4 32 3e b2 72 48 3e 27 16 a7 3c
       0.17009966 0.17476183 0.19575003 0.020396305
0001a0 db 24 b6 3e d5 d8 20 be f0 2e b2 3e 49 ca c5 3c
       0.35574993 -0.15707715 0.34801435 0.024144309
0001b0 d0 68 2b 3e c2 6e c7 bd a3 be 07 be dd a5 ba 3d
       0.16739202 -0.09737922 -0.13256316 0.09113667
0001c0 3a a4 a6 bc b3 4b bf 3d b8 df 98 bd a0 5d 8c 3e
       -0.020341981 0.0934061 -0.07464546 0.2741518
0001d0 94 7a 96 3e 1c c3 b8 3e 31 bd 87 bd 5f 6d a9 3d
       0.29390395 0.36086357 -0.06627882 0.08272814
0001e0 22 f4 b5 3e 0d 96 81 3d c5 aa 10 be 07 c0 46 bf
       0.3553782 0.06327448 -0.14127643 -0.7763676
0001f0 ef 09 6f be ad 9b 09 3f 02 72 03 be 9a af ba be
       -0.23343633 0.5375317 -0.1283646 -0.36462098
000200 75 0e 26 3e 7a 18 62 be bb 49 03 3e 39 9d 9d be
       0.16216452 -0.2207965 0.12821095 -0.30784014
000210 6d 49 53 3e ab 47 c5 bd d7 2f 19 3f e8 09 12 3e
       0.20633478 -0.0963281 0.5983862 0.14261591
000220 64 87 2a be 73 d8 8a bd 11 91 0d be 44 24 7b 3e
       -0.1665321 -0.06779566 -0.1382487 0.24525553
000230 88 2b 0e 3c 37 19 00 be da 1b 44 be 2d 5b e6 be
       0.008677371 -0.12509619 -0.1915125 -0.44991437
000240 36 3c 12 be bd 41 00 be 83 1b 6e 3e 0d d2 1e 3d
       -0.14280781 -0.12525077 0.23252682 0.03877454
000250 90 d5 50 3e 33 c9 65 bd 77 ef b7 3e 50 fd 9f be
       0.20393968 -0.05610008 0.35924885 -0.3124795
000260 c4 b0 c2 3c 2c b6 06 3e 2e ea 11 bd 08 89 9f 3d
       0.023765929 0.1315543 -0.03562372 0.077898085
000270 e8 e3 f1 bd ad d1 a0 bd 02 cd 04 be 9b a0 41 be
       -0.11811048 -0.078524925 -0.1296883 -0.18908922
000280 5c 07 bd bd 07 73 83 be 96 a5 34 3e 5e be ee bd
       -0.09229919 -0.25673696 0.17641291 -0.116574034
000290 7a ea 82 3e 44 87 30 bd 91 cb 58 be 11 5e f3 3d
       0.25569516 -0.04309775 -0.21171404 0.11883176
0002a0 7c fc 11 be ca 13 8a bb 42 db 10 bd 5b f7 cc 3d
       -0.14256471 -0.004213785 -0.03536535 0.10008117
0002b0 7f 3b c8 bc b7 6e c3 3c 02 b3 f7 3c d7 06 80 3d
       -0.024442432 0.023856504 0.030236725 0.062513046
0002c0 20 4c 88 3c 6c 66 34 be 84 95 24 3f cc eb bc 3a
       0.016637862 -0.17617196 0.6429064 0.0014413535
0002d0 0d 92 eb 3c b8 87 23 bd a0 29 b0 3d 02 87 6f bd
       0.028756166 -0.039924353 0.08601689 -0.058478363
0002e0 7c 92 97 3e 1e 6e 3a 3e e3 5a 8c 3e 62 58 d0 3d
       0.29603946 0.18206069 0.2741309 0.10173108
0002f0 b9 72 06 3e 1a 85 c2 3d 98 b0 05 be 79 42 98 3e
       0.131297 0.09498043 -0.13055646 0.29738215
000300 68 19 3f bd d6 0e 7d be 3e f1 37 3d 26 bf 6d 3e
       -0.04665509 -0.2471269 0.0449078 0.23217449
000310 90 34 ee 3d f4 ff 8f bc 5b 6d 59 be 41 8e aa bd
       0.11631119 -0.017578103 -0.21233122 -0.08327914
000320 50 a4 47 3e 0f 05 f5 bd 54 ba 93 3d 89 25 0d 3b
       0.19496274 -0.119638555 0.07213274 0.0021537265
000330 8f 6f 1b 3e 45 e6 f4 3d a5 95 7e be 92 8a fb bb
       0.15179275 0.11957983 -0.24861772 -0.007676431
000340 8b ad dc 3c 1c c8 8a be fb b0 f0 bd 26 f8 47 bc
       0.02693822 -0.27105796 -0.11752506 -0.012205159
000350 ce 73 66 bd a1 00 3c 3e c4 73 2c 3d b1 54 38 3e
       -0.056262784 0.18359615 0.04210259 0.18001057
000360 07 7c 2f 3e 59 13 6b 3d 46 08 84 3d 89 8c 60 bd
       0.17137156 0.0573915 0.064468905 -0.054821525
000370 49 83 6e be 5e 1a bd 3d 83 46 20 be 1d f0 ec 3b
       -0.23292269 0.09233545 -0.15651898 0.007230772
000380 9d 15 8a 3e 54 0d 9d be 0e 45 a1 3d b5 09 57 bd
       0.26969615 -0.3067423 0.07874499 -0.05249949
000390 77 8f 1c 3f 9e 02 d6 3c d6 f9 0d bf 02 16 a5 3e
       0.6115641 0.026124295 -0.55459344 0.32243353
0003a0 49 37 18 bd 1c fb 5d 3c 06 fe 90 bd 50 e1 84 be
       -0.0371621 0.013548639 -0.07079701 -0.2595315
0003b0 6a 08 b2 be 68 3c d8 3d f0 77 65 bd 4f fe 8b 3e
       -0.34772044 0.105583966 -0.056022584 0.2734246
0003c0 73 29 01 be c7 64 4c 3d 73 45 ac 3c 89 1d 7c 3d
       -0.12613468 0.049900796 0.02102921 0.061551604
0003d0 3a b5 6b bd 3c 83 10 3d 1d 78 a4 3e 04 d2 dd be
       -0.057545878 0.035281405 0.3212289 -0.43324292
0003e0 0c 6e e5 bc dd d9 1a 3e 92 b8 b4 bc 09 5b 3a 3d
       -0.028006576 0.15122171 -0.022060666 0.045496974
0003f0 e2 ba ac be 44 06 c1 3e cb 68 07 3d ab 52 63 be
       -0.3373633 0.37700093 0.033058923 -0.22199504

mention_transformer_1/attention/value/add;StatefulPartitionedCall/mention_transformer_1/attention/value/add;mention_transformer_0/attention/value/einsum/Einsum;StatefulPartitionedCall/mention_transformer_0/attention/value/einsum/Einsum;mention_transformer_1/attention/value/einsum/Einsum;StatefulPartitionedCall/mention_transformer_1/attention/value/einsum/Einsum;12926 f4 [32]
000000 97 3f 00 3e 86 31 0f 3e 65 16 34 bd bd 06 59 be
       0.12524258 0.13983735 -0.04396667 -0.21193977
000010 d7 47 c7 bc 68 90 6e 3e a0 1d 57 bd 2e 9b ec bc
       -0.024326248 0.23297274 -0.052518487 -0.02888259
000020 8b 57 e8 bd 1e 15 9d 3e 5c 84 90 bc e2 2c 7d be
       -0.113448225 0.30680174 -0.017641239 -0.24724153
000030 99 e6 58 3b b3 17 39 be 76 68 63 3e 32 04 f4 3c
       0.0033096431 -0.18075447 0.22207817 0.029787157
000040 59 ae ec bd 9b ab 2d be a2 db e8 bd e1 e8 9d 3d
       -0.11556692 -0.16959994 -0.11370017 0.07710434
000050 ec fb f4 3c c4 88 c5 bd 9a bc b6 3b ae 4d 40 bd
       0.029905282 -0.096452266 0.0055766823 -0.04694908
000060 fa ed b0 be d1 20 e1 3e 1b 8b e0 3e ef 54 42 be
       -0.34556562 0.4397035 0.4385613 -0.18977712
000070 43 59 b4 bd b4 3b 39 bd 47 22 e7 3e e7 14 85 be
       -0.08806088 -0.045222953 0.4514334 -0.2599251

mention_transformer_1/bottleneck_input/norm/mul;StatefulPartitionedCall/mention_transformer_1/bottleneck_input/norm/mul;sequential_1/dense_3/Tensordot/shape;StatefulPartitionedCall/sequential_1/dense_3/Tensordot/shape;mention_transformer_1/bottleneck_input/dense/add;StatefulPartitionedCall/mention_transformer_1/bottleneck_input/dense/add;mention_transformer_1/bottleneck_input/dense/einsum/Einsum;StatefulPartitionedCall/mention_transformer_1/bottleneck_input/dense/einsum/Einsum;12902;12904 f4 [32, 32]
000000 56 22 2c bd 3f 4b 91 be 5c 1f f1 be de e8 53 3e
       -0.042024933 -0.2837772 -0.47094238 0.206943
000010 90 a3 cb bd 13 57 ff 3d f3 12 16 3f 01 80 07 3c
       -0.099433064 0.1246778 0.58622664 0.008270265
000020 b2 dd 9f be 41 e1 c3 3c 1f 69 01 be 80 cf e2 3d
       -0.31223828 0.02391112 -0.12637757 0.11074734
000030 a8 57 a4 3d 73 22 d2 3d 8f 9f c9 3b 74 6d 05 be
       0.080245316 0.10260477 0.006153054 -0.13030034
000040 9e 58 08 3e df 38 1f 3e 1e a9 10 3e 48 d1 5a 3e
       0.13315055 0.15549038 0.14127013 0.21368897
000050 b0 2b 56 be 07 7d 12 be 48 ff 34 be 94 33 a0 bc
       -0.20915103 -0.14305507 -0.17675507 -0.019555844
000060 3c 0d 77 bd 26 dd a7 bc 1d 27 f8 bc 28 87 a7 3d
       -0.060315356 -0.020491194 -0.030292088 0.08180076
000070 63 f5 c4 3e e5 6d 15 3d 75 da 6d bd 30 f5 cc 3c
       0.38468465 0.036481757 -0.058069665 0.025019258
000080 cd c6 00 3e 41 bc ea 3e 9d 94 ba bd 3b 8b be 3c
       0.12575836 0.4584675 -0.09110377 0.02325975
000090 b5 f2 aa be 57 24 a1 3c a8 f6 3a be 73 99 80 be
       -0.33388296 0.019670649 -0.18258154 -0.25117072
0000a0 1d 1b 57 3d a9 e3 22 be 77 25 b2 3e f7 9a 16 be
       0.05251609 -0.15907158 0.34794208 -0.14707552
0000b0 f0 35 cf 3e 53 d5 83 bd 2f e7 d6 bd c9 85 52 bc
       0.4047084 -0.06437173 -0.104933135 -0.01284928
0000c0 61 99 9a be 45 da 25 3e de b1 01 bd c8 55 94 3e
       -0.30195144 0.16196544 -0.031663768 0.28971696
0000d0 8e aa 05 be 1d dd cd 3d 70 2e 09 bf 05 6f ca bd
       -0.13053343 0.1005194 -0.53586483 -0.098844565
0000e0 c8 eb 58 bd 32 58 70 bd d7 ad a2 3e 57 5e dc be
       -0.052959234 -0.05867786 0.31773254 -0.43040726
0000f0 51 0c 08 3e 22 02 49 be a0 41 47 3e 07 a1 33 3d
       0.13285948 -0.1962972 0.19458628 0.04385474
000100 fc b2 fd ba 3a 96 8f be 02 c3 64 be f4 42 5c 3e
       -0.001935571 -0.280443 -0.22340015 0.21509916
000110 f9 96 25 be 0d dd 12 be c1 8d e3 3b f7 ea 9e be
       -0.16170873 -0.14342137 0.0069443886 -0.3103864
000120 d3 c6 83 bd d2 3b 39 3d cb 34 f8 bb b4 53 0e 3e
       -0.06434407 0.045223065 -0.007574653 0.13899118
000130 ff c6 8c be 1f 55 96 be 18 8e 47 be ad 9f 76 be
       -0.27495572 -0.29361817 -0.19487798 -0.24084349
000140 4f 3a d2 3b c2 45 9b 3d 64 a1 da be 45 78 48 3c
       0.0064156423 0.075816646 -0.42701256 0.012235706
000150 02 8f 26 3e 97 bc 7b 3d ce e2 02 bf db 8a 14 bf
       0.1626549 0.06145915 -0.51127326 -0.58024377
000160 43 f2 3e 3e 51 cd 3e 3e 87 56 5f be 82 1c 22 bc
       0.18647103 0.1863301 -0.21810351 -0.009894492
000170 34 f0 f7 bd 6b 10 32 3d c8 10 72 bd d3 d3 5c 3e
       -0.12106362 0.04347269 -0.059098035 0.2156518
000180 f8 b6 a2 3d 2c 54 85 be ed 02 0b bf f5 89 55 3e
       0.07945055 -0.2604078 -0.5430134 0.20853408
000190 a9 6c 82 be 9a c0 f9 bd e7 ee 1d bf cf 86 61 be
       -0.25473526 -0.12194939 -0.6169266 -0.22024082
0001a0 c7 c2 fd bd ec 78 8e 3c 47 73 9b 3d 90 e3 62 be
       -0.123906665 0.017391644 0.07590347 -0.2215712
0001b0 a2 b0 58 3c 00 f9 1f be 97 53 6d be 1d 50 ca bd
       0.013225706 -0.1562233 -0.23176418 -0.09878562
0001c0 81 d5 a0 3e ff c9 01 3e cc e0 cb 3e 3b 86 03 3e
       0.3141289 0.12674712 0.39819944 0.12844174
0001d0 94 14 62 3e ea aa 4f bd 36 1e 8c 3c bf 8e d2 3e
       0.22078162 -0.050700106 0.01710425 0.41124532
0001e0 85 95 cc 3e 14 67 1a 3e a4 88 02 be b5 35 58 3e
       0.39957824 0.15078384 -0.12747437 0.21114238
0001f0 22 25 8b bd 5d e1 23 be d3 03 01 bd 40 3d 5a 3d
       -0.06794192 -0.16003938 -0.031497788 0.05328107
000200 f8 fe 6a 3e 2d 3e 51 3c 13 32 16 bc 86 3e 43 bd
       0.22948825 0.0127711715 -0.009167212 -0.04766705
000210 ca a1 07 be 90 ca 22 bd 04 d6 15 3e f7 c1 61 be
       -0.13245311 -0.03974396 0.14632422 -0.22046648
000220 46 30 58 3c 2b 7e 7f bd 4d b5 7b bd bb c5 4a 3e
       0.013195103 -0.062376183 -0.0614522 0.1980199
000230 ac 76 15 3f 63 29 8e 3d 07 f9 cd 3c 9c 0e a7 bd
       0.58384204 0.06941488 0.02514316 -0.081570834
000240 fd 55 d9 3c dd 0f 90 be 16 a1 5a be 43 00 cd 3c
       0.02653026 -0.28137103 -0.21350512 0.025024539
000250 33 96 9d bc 2a 32 6c bc ca b5 d8 be f6 a0 00 be
       -0.01923666 -0.014416257 -0.42326194 -0.12561402
000260 98 76 60 3d 50 68 1b bd 1b 9f ef 3d 3b d8 1c be
       0.0548006 -0.037941277 0.11700269 -0.1531686
000270 47 06 a8 3e 27 7c 2a be be 98 8d bd f3 a0 8f be
       0.3281729 -0.16648923 -0.06913899 -0.28052482
000280 62 a8 39 3d 75 6f 00 3d 71 cf be 3e 79 07 59 bd
       0.045326598 0.031356294 0.3726764 -0.052985642
000290 e8 0e 55 3d 75 7d 9b be 50 c0 b8 3d 07 72 24 3d
       0.05201617 -0.30369154 0.09021056 0.040147807
0002a0 4b 7c 3c 3e fd ac 09 3e c9 67 36 3e 96 da 48 be
       0.18406789 0.13444896 0.17813028 -0.19614634
0002b0 2d fb 44 3e 36 8a df 3d 71 91 cb bd 75 d3 15 3d
       0.19236441 0.109150335 -0.0993985 0.036578614
0002c0 47 f8 37 bc 6a e2 d7 bd 2a db 61 3e 39 ee c4 bd
       -0.0112286275 -0.10541232 0.2205626 -0.0961575
0002d0 6d 56 90 be e6 1b 5b 3c 9d e2 32 be 43 cd d0 3d
       -0.28190938 0.013373351 -0.17469259 0.101954006
0002e0 de 03 2a bc 0f 91 f9 bd 9e d6 96 3e c1 25 47 3e
       -0.010376899 -0.12185871 0.29460615 0.19447996
0002f0 07 72 50 be 7f b5 34 3d 27 41 24 3d 62 38 ce 3d
       -0.20355998 0.0441184 0.040101197 0.10069348
000300 a5 62 17 3e e9 78 85 be 20 23 d8 bc 1c d9 07 3e
       0.14783724 -0.2606881 -0.026383936 0.13266414
000310 87 7f 84 3d 49 1b fe 3d 45 83 e8 3e aa 07 bd bd
       0.064696364 0.12407548 0.4541265 -0.092299774
000320 9f 77 2f be 1a 94 5a 3d 35 d1 3d 3e b8 74 d2 3e
       -0.17135476 0.053363897 0.18536837 0.41104674
000330 11 78 4f 3e 47 34 ef 3d 39 f5 41 be 4e 65 7f bd
       0.20260645 0.11679893 -0.18941201 -0.06235247
000340 db f2 59 bd dc 30 ff 3d 37 76 38 bd 1e f5 99 bd
       -0.05321012 0.12460491 -0.045034613 -0.075174555
000350 d3 4f 1d 3e 6a 17 f6 3d c0 1c 5c 3e 18 87 34 bd
       0.15362482 0.12016185 0.21495342 -0.044074148
000360 35 00 03 3d 91 ea d1 3d a9 68 a1 3e 98 b6 25 be
       0.03198262 0.10249818 0.31525162 -0.16182935
000370 07 df b5 3d ff 4d 15 3e 3d 13 40 3e 08 61 ea 3d
       0.0888043 0.14580534 0.18757339 0.114442885
000380 df 69 2b bd fc 6f 94 3e 96 f2 b3 3e 12 f6 86 3d
       -0.041849013 0.28991687 0.35146016 0.06589903
000390 62 03 a9 be ea 66 6a be ff d7 45 3e 56 48 0c be
       -0.33010393 -0.22890821 0.19320677 -0.13699469
0003a0 28 98 03 bf 6f 8b 9c 3e 69 86 3f 3e 94 b2 1d 3e
       -0.51404047 0.3057513 0.18703617 0.15400153
0003b0 77 fd 29 3c cb 5f 01 3d a1 2f a8 3e df bd 5a be
       0.010375372 0.031585496 0.32848838 -0.21361493
0003c0 e6 cd e0 3e 43 e6 fe be bb fc 13 be 86 f8 9b bd
       0.43907088 -0.4978505 -0.14451878 -0.076157615
0003d0 37 ee 66 be 72 65 c3 3d bc 71 b5 be 3d 78 59 3e
       -0.22551809 0.095408335 -0.35438335 0.21237274
0003e0 d3 bf 43 3e c2 29 23 3d 91 28 8c 3d c1 c1 1c 3e
       0.19116144 0.039834745 0.06843675 0.15308286
0003f0 8b ee c1 bc 56 36 a5 3d da 65 fa bd b4 b6 13 3e
       -0.023673316 0.080670044 -0.12226458 0.14425164

context_transformer_0/attention/value/einsum/Einsum;StatefulPartitionedCall/context_transformer_0/attention/value/einsum/Einsum3 f4 [32, 32]
000000 95 f8 22 be 1d 3e 92 bc 77 2c 12 3e f7 1c 84 3d
       -0.15915139 -0.017851884 0.14274774 0.06450837
000010 41 54 8f 3c 25 cd f3 3e 8a 59 b7 bd eb 30 35 3f
       0.01749623 0.4761745 -0.08952625 0.7077777
000020 de 12 96 3d bf d6 66 3d 3a 34 21 3f 43 38 89 bb
       0.073278174 0.05635714 0.62970316 -0.004187615
000030 15 3a 0c bf f7 8c 0d 3f 68 5f ae 3c b5 1f f3 be
       -0.54776126 0.5529322 0.021285728 -0.47485128
000040 20 bc bc bc ea 67 25 3c d2 b2 c2 3e 75 02 1f be
       -0.023038924 0.010095576 0.38027054 -0.15528281
000050 10 7e 94 bd 0f bc f5 3e 6c 4a 51 be 40 23 f9 3c
       -0.07250607 0.4799504 -0.20438546 0.030412316
000060 f5 5e 95 be 4b cb c2 3d 82 e3 ad 3e b9 82 b5 bc
       -0.2917401 0.09511431 0.33962637 -0.02215706
000070 75 43 27 be e9 ff c5 3d 4a 5e c4 3c bf 48 43 bd
       -0.16334327 0.096679516 0.023970742 -0.047676798
000080 7a f6 e8 bd 8e 6d 79 3e d7 f7 6e be a4 4b c8 3e
       -0.11375137 0.24358198 -0.23336731 0.3912021
000090 39 6e 32 3f 6b 09 be 3d dd 4e ee be 99 43 8f 3e
       0.69699436 0.0927914 -0.46544543 0.2798126
0000a0 ac 94 51 3e fd bb bb 3c fe 7b a1 be 49 1d ec bb
       0.2046687 0.022916788 -0.3153991 -0.0072056395
0000b0 f1 8a d9 3b 64 76 4d 3e 93 60 82 3e 1f 47 cc bd
       0.0066388776 0.20064694 0.25464305 -0.09974503
0000c0 2d da 41 be b6 3a 77 bc 7d c2 22 be 4b 41 a8 be
       -0.18930884 -0.015089681 -0.15894504 -0.32862315
0000d0 55 77 30 3e b0 5d d2 be 11 12 bc 3c ca 01 b4 be
       0.17233022 -0.41087103 0.022957833 -0.35157615
0000e0 b7 43 2f 3f d8 d5 13 3d a7 86 3e 3c ec 32 1f 3f
       0.684627 0.03609261 0.011628783 0.62187076
0000f0 06 e3 1b 3e c3 ea d7 3d 84 54 71 3b 82 24 9c 3e
       0.15223321 0.10542824 0.0036824057 0.30496603
000100 21 31 8e bc 49 08 cc bd e7 a1 5b 3e de 1a b0 be
       -0.01735741 -0.09962518 0.2144848 -0.34395498
000110 2a ed 62 3e 9e 4b 5c 3c 5a 90 63 3e 18 54 8a be
       0.22160783 0.013445763 0.22223035 -0.27017283
000120 8a d4 52 3d 6f 06 9c be d8 af 77 3c b2 fb 01 bf
       0.051472224 -0.30473658 0.015117608 -0.5077468
000130 d0 b7 29 bd 1b c7 1b bf ad 75 a4 3d 86 9b ea bd
       -0.041435063 -0.60850686 0.080302574 -0.11455445
000140 71 f1 de be 35 b9 88 be 75 24 41 bc d4 fd 71 3e
       -0.4354358 -0.26703802 -0.011788477 0.23631984
000150 44 38 cb 39 ef 86 bb be 18 22 15 bd 78 1f 98 3d
       0.00038761098 -0.36626384 -0.036409467 0.07427877
000160 17 78 8c bd e9 8a a1 3c f0 be 85 3e 4d d5 cf 3c
       -0.06858843 0.019719558 0.26122236 0.025370264
000170 bf 8b b5 3e e1 79 df bd c3 aa 3a be d0 39 cb 3e
       0.3545818 -0.109119184 -0.18229203 0.39692545
000180 d5 e0 a0 bd 16 e2 23 3e 22 6c 24 bf 2f 2d 88 be
       -0.07855383 0.16004214 -0.642275 -0.26596972
000190 b3 c8 ea 3e 06 1d 00 bf 84 b6 05 be 98 df 16 3e
       0.45856246 -0.50044286 -0.13057905 0.14733732
0001a0 03 d8 71 be 35 1d 2a 3d bf 0e fd be 1b b3 2b bf
       -0.23617558 0.04153176 -0.49425313 -0.6707017
0001b0 3d 41 ad bd c7 43 d1 ba 1a 4c 2a 3e 26 b3 5a 3e
       -0.08459709 -0.0015965634 0.16630593 0.21357402
0001c0 a3 20 dc be b2 c1 c0 3e cf 54 fd be 8d c0 af 3d
       -0.4299365 0.37647778 -0.49478766 0.08581648
0001d0 da 6e 9b bd 2c 0e 3a 3e 72 40 ca 3e eb 48 a2 3e
       -0.07589503 0.18169469 0.39502293 0.31696257
0001e0 6b e4 a7 3e a1 02 9c 3c d8 6b e5 3d 5e 41 c2 bd
       0.32791457 0.019044222 0.1120221 -0.09485124
0001f0 0b 3b 46 3d 0e b2 e8 bd 3f 65 b4 3d f3 99 1d 3f
       0.04839615 -0.11362086 0.08808374 0.6156303
000200 e5 8f 2d be 40 a2 df bd b8 72 d6 be ce f0 d4 3e
       -0.16949423 -0.109196186 -0.41884398 0.4158997
000210 91 2d b6 3d 03 ee c7 bd 82 06 5e bd d6 5a 0d bf
       0.0889541 -0.09762194 -0.054205425 -0.5521673
000220 45 e9 4a be 0a 33 01 3d 33 e2 8c be 7e 37 c1 3e
       -0.19815548 0.031542815 -0.27516326 0.3773765
000230 01 bc e8 bb 59 b2 34 bf 61 d2 8f 3d c0 23 0d be
       -0.00710249 -0.70584637 0.070225485 -0.13783169
000240 e7 09 c3 3d 21 de 7f 3e 2a 5e df bd bb 73 43 3d
       0.09523373 0.24987079 -0.10906632 0.04771779
000250 23 7f 17 3e 77 00 b2 3e f4 d1 5c 3e a0 eb 25 3e
       0.14794593 0.3476598 0.21564466 0.16203165
000260 9e 38 3b 3e d0 c0 e8 bd 65 5f 4e 3e ef c9 0f 3f
       0.18283316 -0.11364901 0.20153578 0.561675
000270 64 e0 1f 3d 7e 08 fd 3e fe 4c 14 3d 7c d7 e3 be
       0.039032355 0.49420542 0.036206238 -0.4450034
000280 2a 08 72 be 3f 6a 73 be 3d ba c0 be 28 6a 72 3e
       -0.23635927 -0.23770998 -0.3764209 0.23673308
000290 4e 03 17 be dd 62 c5 3e 3e 98 ec be 2d 3e eb 3e
       -0.14747354 0.3855199 -0.46209902 0.45945874
0002a0 46 4d b7 bd 34 d2 38 3d e3 c2 81 3e 9a 9d 0e 3e
       -0.089502856 0.04512234 0.25344 0.13927308
0002b0 b8 41 be be 53 91 e4 3e ef 1e f5 bd ef c5 36 be
       -0.37159514 0.44642124 -0.11968791 -0.17848943
0002c0 5f 3e 53 3f 18 7f cf 3e 6a 01 41 3e 56 2c 6f bd
       0.82517046 0.40526652 0.18848196 -0.05839189
0002d0 3e 89 2d 3e b7 2c 9d 3c 86 66 13 3e aa e6 18 be
       0.16946885 0.01918636 0.14394578 -0.14931741
0002e0 ea 04 b2 be 9d 0b fd bd da 20 43 3d e4 45 36 be
       -0.34769374 -0.12355731 0.04763875 -0.17800099
0002f0 cf e0 1b bf 55 d9 97 3e fb f0 2b be 84 9a ad bd
       -0.60889906 0.29658 -0.16791146 -0.08476737
000300 81 58 26 be 18 04 07 bd 51 6c 3d bf 4d ac e5 3d
       -0.16244699 -0.03296289 -0.739934 0.112145044
000310 c9 0d ab bd c3 67 ee bd 3d 38 9d 3d b0 85 22 3e
       -0.08352239 -0.11640885 0.07676742 0.1587131
000320 b3 e9 51 be 7a 64 90 3e dd de 41 bd 13 6b 5c bb
       -0.20499305 0.28201658 -0.04733168 -0.0033633157
000330 ae c8 2d be c9 bb 0d 3f 91 04 13 be 23 c8 1c 3e
       -0.16971084 0.5536466 -0.1435721 0.15310721
000340 bf 57 f2 3e 7a ee 3c 3e 58 21 69 3e d6 93 0f be
       0.4733257 0.18450347 0.22766626 -0.14021239
000350 0a d9 7c 3d 13 02 e3 3e cb 6d f9 3e 1d 8e a0 bc
       0.061730422 0.4433752 0.48716578 -0.019599015
000360 9b 13 77 be ba 7e 93 3c ab e1 23 3d 31 78 0c be
       -0.24128573 0.018004764 0.040010136 -0.13717724
000370 12 fb 3d be db 8f 1c be 0c 0c 29 be 59 57 35 be
       -0.18552807 -0.15289252 -0.16508502 -0.17709102
000380 31 d1 26 be 7b 85 01 be ae 0f 9b 3b 21 4a 0c be
       -0.16290738 -0.12648575 0.004732094 -0.13700153
000390 d7 1f df bd 2d f5 d0 3e ea bd 98 be 44 76 25 3f
       -0.10894745 0.40812054 -0.29832393 0.64633584
0003a0 64 1a 05 3e c9 d3 05 be f8 fa bd be 86 81 09 bf
       0.12998348 -0.13069071 -0.37105536 -0.5371326
0003b0 39 1c 60 3e 61 4a 56 bd ab ee dc bd bc a4 6b be
       0.21885766 -0.052317027 -0.1078771 -0.2301206
0003c0 e8 c6 a4 3e 5e 2d 52 3e 52 92 b4 3d 30 2e 2b 3e
       0.32183003 0.20525119 0.08816971 0.16716838
0003d0 a5 4c 69 bb bc cb 2c 3c b2 1c e2 3c 40 4d 9f bd
       -0.0035598662 0.010546621 0.027601574 -0.07778406
0003e0 81 33 36 3e 8e 9d ae bd f7 90 1b bd dd 2b 72 be
       0.17793085 -0.08526145 -0.037980046 -0.23649545
0003f0 ac 15 d2 bd fc d9 27 be d4 b7 3a bd c6 cb f8 3e
       -0.1025804 -0.16391748 -0.04558547 0.48592967

context_transformer_0/kq_shared_bottleneck/dense/einsum/Einsum;StatefulPartitionedCall/context_transformer_0/kq_shared_bottleneck/dense/einsum/Einsum f4 [32, 32]
000000 40 4d 8c be 97 e6 51 3e 8a 24 55 be fe b7 ab 3e
       -0.27402687 0.2049812 -0.2081472 0.33538812
000010 f1 a3 07 3d 3e 52 21 be e9 45 53 3e 47 11 7e 3e
       0.03311533 -0.15754029 0.20632137 0.24811278
000020 6e da 83 3e 10 dc ed 3c 16 90 7e 3d 82 95 b7 bc
       0.25752586 0.029035598 0.06214913 -0.022410158
000030 8d 12 c2 bd f0 26 7f be 19 1a 5b be 06 fc 04 be
       -0.094761945 -0.24917197 -0.21396674 -0.12986764
000040 ba 2c c0 3d e3 65 cd bd a9 d5 01 3e f0 f3 26 3e
       0.09383531 -0.10029199 0.12679161 0.16303992
000050 e1 42 52 3e 50 83 73 3e f7 0c 1e be 1d d5 43 3e
       0.20533325 0.2378056 -0.15434633 0.19124265
000060 9e eb 6c be e3 bf 90 bd d8 df 85 be 4d 5b 7b 3e
       -0.23136756 -0.070678495 -0.26147342 0.24546547
000070 68 e2 ed bd 29 11 8d be 9b 39 93 be 03 60 b7 3c
       -0.11615449 -0.27552155 -0.28754887 0.02238465
000080 e4 4e c9 3c 70 b7 29 be 7c e8 be 3d bf 20 97 be
       0.02457375 -0.16573882 0.093216866 -0.2951717
000090 5a e5 27 be 21 f2 19 bd d0 2b d2 bc 62 12 11 3d
       -0.16396084 -0.037584428 -0.025655657 0.03541792
0000a0 f1 46 8b be be ef e1 bb fd ac 96 3a 22 aa e6 bd
       -0.27202561 -0.0068950346 0.0011495646 -0.11262919
0000b0 56 09 e6 3b 90 c2 da 3c 16 4a 98 3e e9 ee 31 3e
       0.007020156 0.026704103 0.29744023 0.17376293
0000c0 b4 9e af be b1 8d bd 3d f6 2b ab 3b 63 67 06 be
       -0.34300768 0.09255541 0.0052237464 -0.13125376
0000d0 9b 59 0b be 94 a0 db bc 4b 5e 56 bc 70 6e 37 be
       -0.136084 -0.026809968 -0.013084005 -0.17913222
0000e0 37 74 9e 3e 88 c9 bc be 1a 7a 14 3e 12 21 93 bd
       0.3094804 -0.36872506 0.14499703 -0.07184042
0000f0 31 2b e7 3d 85 28 8e bd bf 28 16 bd 54 5e df 3d
       0.11287535 -0.06941322 -0.036659952 0.109066635
000100 b5 20 fb bd 3b 3e 3a 3e 9e e0 ea bd 06 17 37 3e
       -0.12262098 0.18187802 -0.114686236 0.17879876
000110 5a 42 9d 3e ad b8 32 be 09 dd b1 bd 33 3b 20 3d
       0.30714685 -0.1745326 -0.08684737 0.039118957
000120 77 86 d0 3d 7d 72 2d be 03 56 4a 3e 0f db 80 3e
       0.10181897 -0.16938205 0.19759373 0.25167128
000130 e5 fb dd bb fc 75 7b be 36 0f a3 be 98 1f 02 bf
       -0.006774413 -0.24556726 -0.31847543 -0.5082946
000140 fe 8a 89 3e db a3 19 3e 43 cc ba bc be 4b ab 3d
       0.26863855 0.15003912 -0.022802478 0.08364056
000150 32 93 25 3e 72 23 e4 bc 05 d4 74 3e 7e 24 a4 3e
       0.16169432 -0.027848933 0.23909004 0.3205909
000160 6d 39 27 3e dc 00 07 3e 6e 52 31 bd e0 e4 69 bd
       0.163305 0.13183922 -0.0432915 -0.057103038
000170 24 23 58 bd 48 a8 be bd ee 12 30 3e d2 f9 8b 3e
       -0.052767888 -0.09309441 0.17194721 0.27339035
000180 d5 52 d5 bb d7 94 48 bc 2e e0 aa 3e 26 10 ab 3e
       -0.0065101185 -0.012242517 0.3337416 0.33410758
000190 0a 3e a1 3e 92 8c 19 be 1f 39 64 be 2e ef 8b be
       0.31492645 -0.1499503 -0.22287415 -0.27330917
0001a0 54 67 83 bd 54 ab 0a 3e be b2 6e 38 40 e4 08 3e
       -0.06416193 0.13541919 5.691009e-05 0.1336832
0001b0 2b 6b 00 3e b2 49 28 bd 9d a9 8d be 02 fc 93 be
       0.12540881 -0.041085906 -0.27668467 -0.28903204
0001c0 88 86 8b bd b1 5f 20 3e f9 9d 48 3d da 02 08 bd
       -0.06812769 0.15661503 0.04897878 -0.033205844
0001d0 0d 17 3a 3e 64 c2 c1 bd ed 66 f3 3d be 11 37 3c
       0.18172856 -0.09460905 0.11884866 0.011173664
0001e0 db b9 aa 3e bb d4 5c be 7f e9 a1 3e f5 8e 21 bd
       0.3334492 -0.21565525 0.31623456 -0.039442975
0001f0 4f 44 21 bd be 81 73 bd 03 bf 38 3e ad 95 cd 3e
       -0.039371785 -0.059449904 0.18041615 0.40153256
000200 ee 37 82 3c c7 53 22 be 10 41 c6 bd 25 93 a1 be
       0.01589581 -0.15852271 -0.096803784 -0.31557575
000210 15 8c 8c be 07 3a 1e bd 60 d7 53 bd 04 25 1a 3e
       -0.27450624 -0.038629558 -0.05171907 0.15053183
000220 14 45 66 be 86 7c 0f bd 13 1b 3d 3d e8 5b 74 bc
       -0.22487289 -0.035030864 0.046168398 -0.01491449
000230 3c 49 cf bd 4e ba 24 bd 85 86 a4 3e 44 57 96 3d
       -0.1012139 -0.040216736 0.3213388 0.07340863
000240 af 3c b3 be 34 28 fc 3d 7c c9 0e bd bb 4f a2 bd
       -0.35007235 0.12312356 -0.03486012 -0.07925364
000250 0c 09 8f bd c7 c0 11 3d e6 7f 21 3d 93 7f e4 bd
       -0.069841474 0.035584237 0.039428614 -0.11157145
000260 01 a5 99 3e 41 33 b0 be 9d 06 f5 3b aa 95 1a 3c
       0.300087 -0.34414104 0.007477595 0.009435097
000270 97 e4 94 3d be a7 c2 bd 65 3b a1 bd 5e 97 ab 3d
       0.072701626 -0.095046505 -0.07872657 0.083784804
000280 5f e9 08 3e 82 6f 75 3c 27 26 f6 be 0e 92 1a bf
       0.13370274 0.014980199 -0.48075983 -0.6037911
000290 1d 43 3f be b7 81 0f 3e ac a5 ae 3e 3f 40 87 3e
       -0.18677945 0.14014326 0.34110773 0.26416203
0002a0 37 dc c1 bc 67 e1 a8 be eb 45 73 bc 72 9b e8 3d
       -0.023664577 -0.32984468 -0.014848213 0.11357774
0002b0 7b 0a 3e bd a0 11 0e be 14 a4 8a 3e 64 b6 ba bd
       -0.046396714 -0.13873911 0.27078307 -0.091168195
0002c0 49 87 61 3d 7f 6d be bd ac 16 fe 3c 9f 81 4d 3c
       0.05506066 -0.092982285 0.03101667 0.012543111
0002d0 94 47 77 be 00 78 81 bd 7a ac 95 bd 86 ae cc 3d
       -0.24148399 -0.06321716 -0.07308288 0.09994225
0002e0 fb e5 e1 3c b3 b1 8f 3d 83 51 0e 3e 57 d2 11 be
       0.027575484 0.07016315 0.13898282 -0.14240395
0002f0 47 88 0f 3e d0 e9 c1 3c 6c 1a 4a 3e a1 12 5f be
       0.1401683 0.02367106 0.19736642 -0.2178445
000300 e2 3b 2f be 8e eb b2 bd 27 1c c6 3d 13 4e 97 be
       -0.17112687 -0.08736335 0.096733384 -0.29551753
000310 cf b4 65 be 73 f3 ca 3d 2d d9 10 3d 8a 1f 20 3e
       -0.22432254 0.099097155 0.035363365 0.15637031
000320 fc 5f 75 be b9 31 9f bc 73 a6 58 bd f5 b6 da bd
       -0.23962396 -0.01943289 -0.052893113 -0.106794275
000330 68 53 93 bd b9 76 be bd e9 bf b6 3e df 53 f3 3d
       -0.07193643 -0.09299988 0.3569329 0.118812315
000340 5d 44 a2 be b1 99 b5 3d ee 95 fd bc a2 13 dd bd
       -0.31692782 0.08867205 -0.030955281 -0.1079476
000350 3f d1 54 be 6f 5b 7c 3d f0 43 b7 3d f7 5b 07 bd
       -0.20782946 0.061610635 0.08948505 -0.03304669
000360 2d 9e 84 3d d6 54 8c be 0c 67 95 3d a9 fe 39 bd
       0.06475482 -0.27408475 0.07295045 -0.04540888
000370 a9 f2 50 bb 15 f9 b6 bc a4 43 ef bc 3c ad 20 3d
       -0.0031882918 -0.022335568 -0.029207058 0.03922771
000380 3c 31 98 be 1c b2 09 3e 97 9b 18 3f ad 03 8f 3e
       -0.29725063 0.1344685 0.5961241 0.27932492
000390 57 2b b2 3e 59 a1 75 3e 03 72 7d 3b 32 df ab 3d
       0.3479869 0.2398733 0.0038672693 0.083921805
0003a0 70 a1 fd bd 1a ba 08 bd de fa 64 be 1b db 31 be
       -0.123843074 -0.033380605 -0.22361323 -0.17368738
0003b0 28 c7 3b 3e 36 e2 af be 82 d1 d5 bd 67 15 f8 3c
       0.18337691 -0.34352273 -0.10440351 0.030283643
0003c0 2f 23 cd bd 82 80 8d 3e 26 5b 8f bb f2 74 63 3d
       -0.10016476 0.27637106 -0.0043748794 0.05553145
0003d0 cb 8c ff bd 74 23 91 3d d9 52 b4 3d 42 56 07 3e
       -0.12478026 0.0708684 0.088048644 0.13216498
0003e0 52 95 ca 3c ca dd 54 be fd f2 0a 3e 7a d2 21 be
       0.024729405 -0.20787731 0.13569255 -0.15802947
0003f0 71 5d 32 be 4e 46 54 be 9b a4 ef 3d a5 b6 e6 3e
       -0.17418458 -0.20729944 0.11701318 0.45061222
